Homework_1_regression/regression_code/BostonHousingTest3.model (torch, 19396 bytes, 7 tensors)

weight f4 [64, 13]
-0.025599321 0.1172751 0.02628442 0.012168966 0.14126177 0.10435752 -0.01074944 -0.30291614
-0.1476483 -0.09410705 0.060711082 0.027551955 -0.13150011 -0.107564 -0.23406714 -0.008109295
-0.24331433 0.011323252 -0.26667348 -0.22270164 0.06953999 -0.21450178 0.17892452 -0.02289389
0.20560749 0.29506165 -0.15982524 -0.15397303 0.11524029 0.06985956 -0.060815256 -0.015775552
-0.28180525 -0.016974635 0.043493576 -0.043751225 0.15678746 0.16081074 -0.15296434 -0.23767845
0.18648009 0.29921418 -0.05648957 0.14481623 -0.23414315 0.6055712 -0.25738606 0.18366879
0.07221016 -0.35589257 0.12339051 0.10172583 0.28294325 0.100661665 -0.2542564 -0.018776603
0.51728326 0.2637909 0.17705747 -0.17027107 -0.42900795 0.1434355 0.041340668 -0.28546605
0.07734824 0.061676167 -0.13812983 0.068624966 -0.19725637 0.3196245 -0.4646569 0.22054419
-0.34611288 -0.3995349 0.24817881 -0.011545511 0.48916975 0.040744785 -0.07785743 -0.10686279
0.011133536 0.12075549 -0.31371158 0.050547373 0.12704365 0.17090444 -0.057800144 -0.036573686
-0.24808146 0.19070134 -0.047761697 0.21132964 -0.012378863 0.046853244 0.20881005 -0.3780573
0.17652516 0.22955547 0.18883061 -0.13050947 -0.034351207 0.13336475 -0.039418384 0.25080505
-0.19765358 0.04919769 -0.18976364 0.07164784 0.048046988 0.16059433 0.156626 -0.117627524
-0.2896945 -0.021803668 -0.16241331 0.00615532 0.21046798 -0.14625373 -0.11904914 -0.007136086
-0.029065672 0.29900256 0.1422657 -0.50959575 0.08747265 0.0725602 -0.18248414 -0.10442425
0.3215316 0.44924322 -0.0028744526 0.05006413 -0.3300465 0.044666246 -0.08166584 0.14615214
-0.008095378 -0.34567842 0.19545309 0.102546655 0.1438216 0.05403851 -0.5400772 -0.36277887
-0.16608551 0.25190967 -0.30125046 0.21636097 0.2775498 -0.058196682 0.1278513 -0.07734894
-0.2992723 0.05628572 0.045448374 0.0673584 -0.28095043 0.21524374 0.10740834 -0.094430156
0.08791351 0.057781924 -0.19781287 -0.28169662 -0.024309477 0.0376605 0.16618909 0.17862083
-0.12085787 -0.21158378 -0.3199554 -0.111897446 -0.1349606 0.039945494 -0.18025722 -0.06712718
0.08821476 0.14152466 0.18530194 -0.25857195 0.0110310735 -0.051001333 -0.003741722 0.36989832
0.09770131 -0.25748122 0.14089872 -0.39733714 -0.0563754 -0.21788768 -0.16807026 -0.24199593
0.58158916 -0.2799025 -0.061494365 -0.023593754 -0.11323135 -0.050802216 -0.09836343 -0.20623334
0.28805545 -0.11207703 -0.041507732 0.08308054 -0.18070623 -0.13595642 0.30239528 0.21679
0.12116854 -0.4843122 0.099296674 0.03060669 -0.3786364 0.09775462 0.21851842 -0.046736095
0.24876383 -0.058840234 0.09738041 -0.21789888 -0.2837697 -0.035631053 -0.006677061 0.13885558
-0.037235226 -0.2044515 -0.2589602 0.19520204 0.27542418 0.20851697 -0.08482694 0.08959842
-0.39591008 0.17406073 0.04675613 -0.059620477 0.21239327 -0.09809325 0.00078491576 0.0040875743
0.038581923 -0.017533194 -0.12831868 -0.1614126 -0.06490559 -0.2239429 0.06397669 0.16736802
0.13510601 0.03721253 0.26454315 0.29653767 0.23546824 -0.13993107 0.31497973 -0.20863594
00000000: abb5 d1bc ed2d f03d 6d52 d73c 5860 473c
00000010: eda6 103e 65b9 d53d 6b1e 30bc d317 9bbe
00000020: 1e31 17be 32bb c0bd 2fac 783d a3b4 e13c
00000030: f7a7 06be 844a dcbd 4caf 6fbe d9dc 04bc
00000040: 6427 79be 2985 393c 6d89 88be e60b 64be
00000050: fb6a 8e3d 5ba6 5bbe fd37 373e f88b bbbc
00000060: c58a 523e 5212 973e 3aa9 23be 1bab 1dbe
00000070: 1a03 ec3d 8712 8f3d 6b19 79bd bb3b 81bc
00000080: c748 90be 640e 8bbc 5226 323d 7c34 33bd
00000090: e48c 203e 92ab 243e afa2 1cbe fb61 73be
000000a0: a3f4 3e3e 9a32 993e 9b61 67bd b54a 143e
000000b0: 39c3 6fbe b706 1b3f 1bc8 83be ac13 3c3e
000000c0: ece2 933d 8d37 b6be 2ab4 fc3d a255 d03d
000000d0: f0dd 903e b427 ce3d e52d 82be 64d1 99bc
000000e0: ad6c 043f 9a0f 873e 8e4e 353e 8a5b 2ebe
000000f0: eea6 dbbe c1e0 123e d554 293d 9b28 92be
00000100: c168 9e3d 26a0 7c3d e871 0dbe 3f8b 8c3d
00000110: 93fd 49be d3a5 a33e 82e7 edbe 56d6 613e
00000120: b535 b1be d78f ccbe 9622 7e3e 6229 3dbc
00000130: 7574 fa3e 01e4 263d b773 9fbd e1da dabd
00000140: 6f69 363c a84e f73d ce9e a0be c30a 4f3d
00000150: bb17 023e 9301 2f3e d8bf 6cbd 4ace 15bd
00000160: 1109 7ebe 3647 433e c5a1 43bd cc66 583e
00000170: b7d0 4abc 30e9 3f3d 4dd2 553e ba90 c1be
00000180: 03c3 343e 9710 6b3e d05c 413e 46a4 05be
00000190: dab3 0cbd c590 083e 2c75 21bd 8569 803e
000001a0: b365 4abe 8483 493d 6651 42be 1abc 923d
000001b0: ebcc 443d d772 243e 9162 203e b3e6 f0bd
000001c0: d652 94be 9b9d b2bc ad4f 26be 91b2 c93b
000001d0: eb84 573e 8ac3 15be 09d0 f3bd d4d5 e9bb
000001e0: 221b eebc dd16 993e 1aae 113e de74 02bf
000001f0: dc24 b33d 719a 943d 1fdd 3abe 62dc d5bd
00000200: ca9f a43e 3503 e63e 5061 3cbb 0c10 4d3d
00000210: dbfb a8be f4f3 363d 6c40 a7bd e8a8 153e
00000220: 7aa2 04bc c3fc b0be db24 483e fb03 d23d
00000230: f845 133e 7c57 5d3d 8042 0abf 27be b9be
00000240: 5212 2abe 4efa 803e 803d 9abe bb8d 5d3e
00000250: 021b 8e3e a55f 6ebd 74eb 023e 1f69 9ebd
00000260: 383a 99be db8b 663d 1328 3a3d 33f3 893d
00000270: bcd8 8fbe db68 5c3e e7f8 db3d 9964 c1bd
00000280: 000c b43d bdac 6c3d 758f 4abe 8a3a 90be
00000290: ab24 c7bc e541 1a3d 792d 2a3e 61e8 363e
000002a0: 5584 f7bd 6ba9 58be 32d1 a3be 7d2a e5bd
000002b0: 1d33 0abe e39d 233d 5995 38be fa79 89bd
000002c0: f1a9 b43d d7eb 103e cbbf 3d3e 8b63 84be
000002d0: adbb 343c c6e6 50bd ae37 75bb 5063 bd3e
000002e0: a017 c83d 94d4 83be c147 103e c66f cbbe
000002f0: e4e9 66bd f31d 5fbe 9c1a 2cbe c8cd 77be
00000300: 07e3 143f 614f 8fbe 84e1 7bbd b047 c1bc
00000310: d7e5 e7bd fc15 50bd c472 c9bd d52e 53be
00000320: 017c 933e a488 e5bd 0304 2abd 2126 aa3d
00000330: 0e0b 39be 2938 0bbe 8ed3 9a3e 33fe 5d3e
00000340: 3627 f83d c5f7 f7be 0e5c cb3d e2ba fa3c
00000350: a1dc c1be 9333 c83d 4bc3 5f3e 596e 3fbd
00000360: f2bb 7e3e 7502 71bd 616f c73d e220 5fbe
00000370: 434a 91be def1 11bd 3fcb dabb 2830 0e3e
00000380: f783 18bd bc5b 51be 6e96 84be 0be3 473e
00000390: 6604 8d3e 7985 553e bfb9 adbd 607f b73d
000003a0: bab4 cabe fa3c 323e 5b83 3f3d 9a34 74bd
000003b0: 9f7d 593e 1de5 c8bd cec2 4d3a 0ff1 853b
000003c0: 1408 1e3d c6a1 8fbc f965 03be 5849 25be
000003d0: 39ed 84bd 4a51 65be 3606 833d 8662 2b3e
000003e0: 3b59 0a3e 2a6c 183d 3372 873e c9d3 973e
000003f0: 961e 713e 174a 0fbe 0645 a13e a9a4 55be

bias f4 [64]
0.28071728 0.01169663 0.37574598 0.09069096 0.15745175 -0.22932142 0.14912687 0.04719642
-0.23132473 0.35520676 -0.3382251 0.2651689 0.019432701 -0.14821438 -0.183901 0.15701754
0.20720553 -0.078883685 0.11131193 0.04937881 0.15946384 -0.4184441 0.36096928 -0.053634796
0.0098090535 0.25438827 -0.19150312 -0.17887159 0.2416507 0.03054251 0.01104799 0.3560457
0.24071892 -0.22487389 0.1408035 -0.14642149 -0.62288254 0.05756102 -0.08462537 0.15597527
0.073240556 -0.18068938 0.050331563 0.09242411 -0.08956818 0.11502285 0.0060174977 -0.13035542
-0.3197342 -0.15206134 0.4434647 -0.25832576 -0.068509236 -0.012210027 0.2585041 0.22173667
0.20090652 -0.046935655 -0.06590331 -0.027617812 -0.40980715 0.07035905 0.22855909 0.39183846
00000000: 2dba 8f3e 39a3 3f3c c761 c03e 2fbc b93d
00000010: 083b 213e 3cd3 6abe b7b4 183e 0951 413d
00000020: 64e0 6cbe a9dd b53e d72b adbe 38c4 873e
00000030: 5431 9f3c 83c5 17be 8b50 3cbe 35c9 203e
00000040: b02d 543e c58d a1bd 82f7 e33d 6f41 4a3d
00000050: 7d4a 233e 4e3e d6be f7d0 b83e 29b0 5bbd
00000060: 27b6 203c 2e3f 823e 6519 44be 1d2a 37be
00000070: 4873 773e 4934 fa3c a102 353c 9f4b b63e
00000080: 057f 763e 5745 66be cb2e 103e 84ef 15be
00000090: 3b75 1fbf 1bc5 6b3d 1150 adbd fbb7 1f3e
000000a0: 25ff 953d a306 39be 7828 4e3d da48 bd3d
000000b0: 866f b7bd 1a91 eb3d 6e2e c53b e47b 05be
000000c0: 33b4 a3be f8b5 1bbe ce0d e33e 4643 84be
000000d0: 924e 8cbd 910c 48bc a65a 843e f00e 633e
000000e0: 70ba 4d3e 9a3f 40bd 51f8 86bd c03e e2bc
000000f0: 3ed2 d1be 6818 903d 650b 6a3e 0d9f c83e

weight f4 [32, 64]
0.09153532 0.08922957 0.07822004 0.011252551 -0.10245329 0.03824993 -0.08257513 -0.13563156
0.035899356 0.14696069 0.16141637 -0.046746574 -0.07058736 -0.10257796 -0.19025077 0.14859822
0.040752996 -0.12903067 0.07649504 0.04735351 0.10718392 -0.020454392 0.107537344 -0.042505424
-0.026012335 0.14780079 -0.2382626 0.12508066 -0.041409202 0.024738131 0.11204344 0.03356155
-0.048777368 -0.07299698 0.10424128 -0.020053163 0.046982434 -0.01275083 0.041648727 0.046484996
0.13434376 0.017236684 -0.03198634 0.15014598 -0.026170699 0.008560834 0.08412423 -0.17522603
0.05055462 0.032070264 0.20224136 -0.03763601 -0.15494092 0.13468957 0.10835425 0.0056866314
0.055915087 -0.14284904 0.15357122 0.015936935 -0.18040998 -0.053836234 -0.001764131 0.008999781
0.0041876505 -0.023562847 0.06749324 0.17945766 -0.12681757 -0.28093222 0.116361424 0.05658674
-0.124866165 0.13118106 0.084134154 0.16720444 0.15980999 0.12191104 -0.1947698 0.06613184
0.07756119 0.0305046 0.11146555 0.1480071 0.17643034 0.21844576 0.20453982 -0.32038853
-0.2593856 0.14187469 -0.12239295 0.20777656 0.33965603 0.14061862 -0.035857785 0.15876518
0.21837178 -0.06016776 0.011827792 -0.009933974 0.22241613 -0.1672732 0.24119657 0.24385415
-0.008077207 0.13243851 -0.11552306 0.047146942 0.26250145 -0.17550561 0.07001053 0.003171392
0.12382285 0.1289549 0.049865402 0.035944466 -0.009308433 -0.0006877776 -0.07035009 -0.031459086
0.021637183 -0.022030428 0.08358154 0.020765476 -0.16832761 0.1417731 0.0042222147 0.13244691
0.07239961 -0.0744203 -0.082623534 0.09041477 0.049269304 -0.081434384 -0.08491205 0.013576195
0.065500036 0.0286138 0.12162473 -0.019889291 0.012011144 0.07387413 -0.068760455 -0.06843233
-0.1056122 0.027824685 -0.05158015 0.015454143 0.042494304 -0.11402177 -0.082333535 -0.025603928
-0.1375685 0.07173987 -0.093160644 0.11854037 0.029933415 0.017567929 0.092205964 0.08245906
0.06429312 0.015486159 -0.11180395 0.009250735 0.017546171 0.020043941 0.102968186 -0.064733304
-0.07756322 -0.10175185 -0.033608846 0.11873748 0.041609894 0.018515468 0.045454014 -0.029700609
0.05997458 -0.047705386 -0.08369101 -0.07215555 -0.14973256 0.11399261 -0.06774502 -0.0040824134
-0.07703913 0.06851387 0.022655418 -0.013764835 0.0012807971 -0.12894557 -0.07924261 -0.0008190838
-0.0014617399 -0.08589454 0.09975018 0.1419381 0.0014269752 -0.12988669 -0.11198329 0.0044421195
0.04492605 0.07458648 0.03776361 -0.025241712 -0.038776312 -0.03005919 -0.056495823 -0.08527957
0.17621034 -0.017936504 0.0061326264 0.00971962 -0.025004063 0.14495502 0.014069957 -0.290912
-0.1651292 0.09215323 -0.07376121 0.13514963 0.1565492 -0.054020558 0.06869435 0.06344576
0.04552152 -0.020874076 -0.1059106 -0.056144204 0.21303861 -0.10389794 -0.008811985 0.14403024
0.11032676 0.14067064 0.042612948 0.12470978 0.06774348 -0.17470777 -0.008411794 0.072185315
0.034428995 0.016430473 0.092954345 0.037820335 -0.07311439 0.06384094 0.04617371 0.10024729
-0.053540777 -0.08938282 0.083341695 0.10041722 -0.102241844 -0.05042301 -0.120699026 0.024969518
00000000: df76 bb3d febd b63d d431 a03d 9f5c 383c
00000010: 08d3 d1bd f5ab 1c3d 261d a9bd 00e3 0abe
00000020: 340b 133d dd7c 163e 554a 253e 5679 3fbd
00000030: 1b90 90bd 6514 d2bd 19d1 42be 222a 183e
00000040: 9dec 263d 9e20 04be 6ea9 9c3d c1f5 413d
00000050: 3e83 db3d f88f a7bc 8a3c dc3d 2b1a 2ebd
00000060: d217 d5bc 1759 173e 1cfb 73be 2515 003e
00000070: b29c 29bd 9fa7 ca3c 0877 e53d d677 093d
00000080: c7ca 47bd 717f 95bd 747c d53d 8846 a4bc
00000090: a770 403d dbe8 50bc db97 2a3d 0d67 3e3d
000000a0: 6991 093e f233 8d3c 1c04 03bd debf 193e
000000b0: ef63 d6bc be42 0c3c 5349 ac3d 746e 33be
000000c0: 5c12 4f3d 1c5c 033d 5c18 4f3e 3828 1abd
000000d0: d5a8 1ebe 10ec 093e d5e8 dd3d ec56 ba3b
000000e0: 3807 653d 0547 12be c641 1d3e 2d8e 823c
000000f0: 65bd 38be 6283 5cbd 6a3a e7ba d173 133c
00000100: 8f38 893b df06 c1bc e539 8a3d c0c3 373e
00000110: 77dc 01be 59d6 8fbe e64e ee3d 7fc7 673d
00000120: d5b9 ffbd 5454 063e 874e ac3d a437 2b3e
00000130: 3ba5 233e 7fac f93d bc71 47be 2170 873d
00000140: 67d8 9e3d c8e4 f93c 0d48 e43d 2c8f 173e
00000150: 28aa 343e 3fb0 5f3e e372 513e f709 a4be
00000160: 30ce 84be 9947 113e 28a9 fabd 61c3 543e
00000170: 65e7 ad3e 54fe 0f3e 9ddf 12bd 5793 223e
00000180: da9c 5f3e 7872 76bd 5bc9 413c 1bc2 22bc
00000190: 0ec1 633e aa49 2bbe 3cfc 763e e7b4 793e
000001a0: 4356 04bc f69d 073e 5b97 ecbd 271d 413d
000001b0: 9766 863e beb7 33be ae61 8f3d 21d7 4f3b
000001c0: d696 fd3d c10c 043e aa3f 4c3d 813a 133d
000001d0: 6682 18bc f94b 34ba b513 90bd 3edb 00bd
000001e0: 7640 b13c 2879 b4bc cc2c ab3d 5c1c aa3c
000001f0: 135e 2cbe f82c 113e 815a 8a3b 2aa0 073e
00000200: 3f46 943d ac69 98bd 8736 a9bd 612b b93d
00000210: 9cce 493d 12c7 a6bd 5ee6 adbd b06e 5e3c
00000220: e224 863d 7d67 ea3c 6316 f93d deee a2bc
00000230: 64ca 443c 524b 973d 48d2 8cbd 4026 8cbd
00000240: 364b d8bd 98f0 e33c b545 53bd 6033 7d3c
00000250: 820e 2e3d 3f84 e9bd 7c9e a8bd 54bf d1bc
00000260: c2de 0cbe 5aec 923d 02cb bebd 4bc5 f23d
00000270: ec36 f53c 9eea 8f3c 7bd6 bc3d 4ce0 a83d
00000280: 1cac 833d a9b9 7d3c 78f9 e4bd 6590 173c
00000290: fdbc 8f3c 3133 a43c fce0 d23d e592 84bd
000002a0: 77d9 9ebd 4663 d0bd 6ea9 09bd a32c f33d
000002b0: 236f 2a3d c0ad 973c fd2d 3a3d b14e f3bc
000002c0: e8a7 753d b966 43bd 3166 abbd 4ac6 93bd
000002d0: 7e53 19be f574 e93d e7bd 8abd c4c5 85bb
000002e0: b1c6 9dbd 0051 8c3d db97 b93c e785 61bc
000002f0: 6be0 a73a 4f0a 04be f349 a2bd c9b7 56ba
00000300: da97 bfba 7ae9 afbd d349 cc3d 3958 113e
00000310: 5809 bb3a 0401 05be 7f57 e5bd 338f 913b
00000320: 6104 383d ccc0 983d 04ae 1a3d b5c7 cebc
00000330: e9d3 1ebd b13e f6bc 2a68 67bd 0ea7 aebd
00000340: 7c70 343e 93ef 92bc 33f4 c83b 0b3f 1f3c
00000350: 52d5 ccbc 176f 143e ad85 663c 6bf2 94be
00000360: a117 29be d5ba bc3d 1e10 97bd aa64 0a3e
00000370: 6f4e 203e a944 5dbd a0af 8c3d daef 813d
00000380: c674 3a3d 1c00 abbc a8e7 d8bd 77f7 65bd
00000390: cb26 5a3e 71c8 d4bd 2560 10bc aa7c 133e
000003a0: fff2 e13d f70b 103e ea8a 2e3d d767 ff3d
000003b0: 18bd 8a3d 98e6 32be 9fd1 09bc e5d5 933d
000003c0: 6b05 0d3d 3399 863c d95e be3d 7fe9 1a3d
000003d0: ffbc 95bd 0abf 823d a520 3d3d 744e cd3d
000003e0: 934d 5bbd 570e b7bd 0daf aa3d 8ba7 cd3d
000003f0: 2c64 d1bd 5c88 4ebd 0d31 f7bd e08c cc3c

bias f4 [32]
0.035172623 0.36107656 -0.012826405 0.030765487 -0.062945716 -0.029751256 -0.069907404 -0.23475903
-0.07861981 -0.09628986 -0.07974108 -0.11965689 -0.10415598 -0.012345985 0.086268574 -0.02874126
-0.113991946 0.1984838 0.10730496 -0.09001345 0.019121733 0.32662824 0.011685719 0.33781058
-0.010986794 0.27182573 0.29758134 0.08860404 0.05373421 -0.10084667 -0.038981035 -0.009336199
00000000: 2b11 103d 07df b83e d825 52bc e707 fc3c
00000010: afe9 80bd e8b8 f3bc 9d2b 8fbd ac64 70be
00000020: 6c03 a1bd 9e33 c5bd 4b4f a3bd ac0e f5bd
00000030: bb4f d5bd d046 4abc 94ad b03d ca72 ebbc
00000040: 9c74 e9bd 563f 4b3e b4c2 db3d f958 b8bd
00000050: 2ea5 9c3c d13b a73e 7575 3f3c 82f5 ac3e
00000060: f401 34bc be2c 8b3e 955c 983e 0976 b53d
00000070: 6718 5c3d b388 cebd 94aa 1fbd dbf6 18bc

weight f4 [16, 32]
0.12471803 0.22970657 0.08560012 0.117840305 0.2502977 -0.20732592 0.027566252 0.2859908
-0.03715123 -0.15678898 -0.10891081 -0.049721748 0.036479536 -0.1550435 0.12937488 0.1486368
-0.0721102 0.20748504 -0.1526342 0.046375766 -0.122489594 0.27963716 0.16282225 0.023047293
0.20091602 0.19881411 0.32108343 -0.25491467 -0.06598742 -0.07832525 0.08574243 0.28431737
0.24683046 0.21784528 0.08836056 0.051749505 0.13632257 -0.115897894 -0.11144652 -0.006163619
0.054468762 -0.15988526 -0.11545266 0.15021883 -0.08297754 -0.0797441 0.06826429 0.075395584
-0.12205327 0.008734472 0.05961374 0.06486722 0.08597106 0.16080241 0.14745967 0.24256006
0.027885936 0.13202049 0.3835033 -0.24134713 0.06965135 0.075356595 -0.079965934 0.18326491
0.104267135 0.11491154 -0.03140194 -0.13365509 0.15314807 0.09421786 0.0893507 0.07387584
0.098683074 0.009673707 -0.041144498 -0.018724615 -0.14479221 -0.099084385 -0.11149647 0.0795105
0.07377927 -0.07995688 -0.045136817 -0.15743554 -0.09301807 -0.119189866 -0.17439646 -0.07445694
-0.09017251 0.067513674 -0.08960045 0.009325876 -0.15172838 0.07139348 0.0027579023 -0.09022901
0.136554 0.082359776 -0.14420971 0.06961382 -0.03309843 0.05527632 -0.13338976 -0.106638856
0.151775 0.1416158 -0.13671163 0.10875238 -0.08356899 0.13484661 0.04515934 0.16220312
0.11026202 -0.055533104 -0.09420252 -0.13377872 -0.06192828 0.06716779 0.0021078968 -0.0087676
0.03456585 -0.15876323 -0.15442142 -0.024348935 0.05491963 -0.00048988237 0.0825218 0.061266743
-0.12395873 -0.13388033 0.014248233 -0.08291084 -0.048701514 0.035727113 -0.037220158 -0.1353931
-0.09926468 -0.09564243 0.10410466 -0.13108468 0.13196337 0.02668272 -0.13195486 -0.16292337
0.13544184 -0.121327125 0.11005658 -0.101770155 -0.07423472 0.1515788 -0.16275905 0.028936513
-0.013082341 0.051459335 0.018043365 -0.03601376 -0.027268037 -0.14467357 0.08871653 -0.057552338
-0.035692133 0.08118535 -0.036822703 0.019965662 -0.07189002 0.16933063 -0.083768286 -0.05184951
-0.052010015 -0.1250202 -0.039610963 -0.081843585 -0.18288293 -0.072656885 0.07965305 -0.11747286
-0.060700446 0.11583232 0.025420563 -0.04944531 -0.017622732 0.19305189 0.14172196 0.014912424
0.09374409 -0.05552572 -0.1472522 -0.1266208 0.058151558 -0.100199215 -0.072870925 -0.15831074
0.13489787 0.1630295 0.13851066 -0.117688745 -0.1721538 0.06696079 0.020160358 0.15245861
-0.16760178 -0.116031915 -0.07440283 0.11698222 -0.09937475 0.12160815 -0.015106551 -0.11853206
0.087123655 -0.08149509 -0.08709842 -0.028093264 -0.042763736 -0.13481043 0.07063571 -0.16862819
-0.030148128 0.17414849 -0.15113461 -0.12990017 0.028804129 0.02282266 0.112364486 -0.13047187
0.022704633 0.00014823864 0.037055038 0.19058421 0.049779642 0.02034877 -0.13777763 0.18503423
-0.1818119 -0.007817752 -0.062860265 -0.0004620955 0.13043043 0.09287239 -0.10358744 0.05314876
0.01586664 0.082670376 0.030863695 0.14882597 0.13906378 0.23916021 0.058616806 0.21894054
-0.009543729 0.038037583 0.13227713 -0.09318491 -0.05912918 0.015844066 0.13016456 -0.033993404
00000000: 2b6c ff3d 3338 6b3e 1e4f af3d 4256 f13d
00000010: 0527 803e 3f4d 54be 9fd2 e13c 636d 923e
00000020: e32b 18bd 4a8d 20be a10c dfbd 08a9 4bbd
00000030: 916b 153d b9c3 1ebe d97a 043e 3f34 183e
00000040: 83ae 93bd f576 543e 244c 1cbe 84f4 3d3d
00000050: d3db fabd 9a2c 8f3e e0ba 263e adcd bc3c
00000060: eebc 4d3e ed95 4b3e 0c65 a43e 2d84 82be
00000070: 6a24 87bd fd68 a0bd ba99 af3d 0c92 913e
00000080: 20c1 7c3e d512 5f3e 62f6 b43d 4af7 533d
00000090: 2598 0b3e e05b edbd 133e e4bd 2ff8 c9bb
000000a0: a31a 5f3d f6b8 23be 7272 ecbd f7d2 193e
000000b0: 21f0 a9bd e050 a3bd 26ce 8b3d 0069 9a3d
000000c0: 11f7 f9bd 081b 0f3c 892d 743d 1bd9 843d
000000d0: 9811 b03d 63a9 243e abff 163e aa61 783e
000000e0: 0c71 e43c 6130 073e 8b5a c43e b423 77be
000000f0: 5ea5 8e3d 8f54 9a3d 2ec5 a3bd cca9 3b3e
00000100: 028a d53d be56 eb3d 529f 00bd e1dc 08be
00000110: d9d2 1c3e 4bf5 c03d 80fd b63d 374c 973d
00000120: 5a1a ca3d 787e 1e3c 2287 28bd 5d64 99bc
00000130: 6944 14be c1ec cabd 4358 e4bd 67d6 a23d
00000140: 9619 973d 6fc0 a3bd 62e1 38bd c836 21be
00000150: 4280 bebd d119 f4bd fc94 32be e17c 98bd
00000160: 5dac b8bd 9c44 8a3d 7180 b7bd 8fcb 183c
00000170: af5e 1bbe bf36 923d ecbd 343b fdc9 b8bd
00000180: d0d4 0b3e 3eac a83d b6ab 13be b191 8e3d
00000190: 3892 07bd 6c69 623d 5397 08be 7965 dabd
000001a0: e86a 1b3e bb03 113e 22fe 0bbe 91b9 de3d
000001b0: 3826 abbd 3b15 0a3e 00f9 383d 9318 263e
000001c0: 0ed1 e13d ae76 63bd 40ed c0bd 4afd 08be
000001d0: 82a8 7dbd 448f 893d a424 0a3b fba5 0fbc
000001e0: ec94 0d3d d492 22be a620 1ebe 6b77 c7bc
000001f0: 68f3 603d 736b 00ba 3101 a93d d6f2 7a3d
00000200: 13de fdbd ed17 09be 6c71 693c 29cd a9bd
00000210: 3d7b 47bd 9856 123d 2a74 18bd 7da4 0abe
00000220: 484b cbbd 2ee0 c3bd d334 d53d 103b 06be
00000230: 6821 073e b895 da3c 2d1f 07be 62d5 26be
00000240: 44b1 0a3e 5b7a f8bd 5865 e13d df6c d0bd
00000250: 5f08 98bd 7937 1b3e 4faa 26be 440c ed3c
00000260: 5157 56bc 06c7 523d aecf 933c 2a83 13bd
00000270: 3861 dfbc 4f25 14be 03b1 b53d 00bc 6bbd
00000280: ea31 12bd 8144 a63d 67d3 16bd 078f a33c
00000290: 133b 93bd 0265 2d3e b58e abbd 2760 54bd
000002a0: 7408 55bd 4c05 00be 1b3f 22bd 9c9d a7bd
000002b0: aa45 3bbe 22cd 94bd 2321 a33d 9c95 f0bd
000002c0: 08a1 78bd 7f39 ed3d c93e d03c 2a87 4abd
000002d0: 8c5d 90bc 65af 453e 901f 113e 3d53 743c
000002e0: e7fc bf3d f06e 63bd 48c9 16be e2a8 01be
000002f0: 5430 6e3d 3f35 cdbd 5a3d 95bd 361c 22be
00000300: ab22 0a3e 35f1 263e bdd5 0d3e cc06 f1bd
00000310: 1649 30be bd22 893d 5627 a53c 1c1e 1c3e
00000320: cd9f 2bbe 24a2 edbd 8360 98bd 6094 ef3d
00000330: fd84 cbbd b20d f93d 7881 77bc f0c0 f2bd
00000340: e36d b23d e6e6 a6bd a860 b2bd d823 e6bc
00000350: 0729 2fbd bf0b 0abe 75a9 903d deac 2cbe
00000360: 35f9 f6bc fb53 323e 08c3 1abe 8d04 05be
00000370: a3f6 eb3c 96f6 ba3c 5a1f e63d 6b9a 05be
00000380: 11ff b93c 8270 1b39 06c7 173d 8228 433e
00000390: bde5 4b3d 77b2 a63c 9415 0dbe 9d79 3d3e
000003a0: e62c 3abe 0716 00bc e2bc 80bd 6845 f2b9
000003b0: 8e8f 053e e133 be3d a725 d4bd 84b2 593d
000003c0: c1fa 813c 164f a93d dcd5 fc3c d665 183e
000003d0: bc66 0e3e 6ae6 743e 2d18 703d f331 603e
000003e0: 4d5d 1cbc 4ccd 1b3d a873 073e bbd7 bebd
000003f0: 7031 72bd 6acb 813c dc49 053e ab3c 0bbd

bias f4 [16]
0.09600122 0.35408673 0.0024721583 -0.0730983 -0.058733776 -0.11740863 -0.10054906 0.28690314
-0.10808125 0.32527852 0.052067444 0.6056275 0.56140465 0.44307742 -0.08533411 -0.020117223
00000000: 4a9c c43d db4a b53e ef03 223b 90b4 95bd
00000010: d492 70bd f073 f0bd aaec cdbd f8e4 923e
00000020: b459 ddbd e88a a63e ac44 553d 670a 1b3f
00000030: 37b8 0f3f 0bdb e23e a6c3 aebd e0cc a4bc

weight f4 [1, 16]
0.7328349 0.6622602 -0.23143041 0.037928075 -0.08348006 -0.16400631 -0.13685037 0.4066449
0.22421521 0.87778777 -0.14953442 1.571405 1.2702241 1.2228825 0.4776577 -0.15906212
00000000: 119b 3b3f e289 293f 18fc 6cbe 785a 1b3d
00000010: 98f7 aabd 45f1 27be 8122 0cbe c333 d03e
00000020: ac98 653e b3b6 603f 8d1f 19be cd23 c93f
00000030: b496 a23f 6a87 9c3f 8d8f f43e 2ee1 22be
