Homework_1_regression/regression_code/BostonHousingTest1.model (torch, 18884 bytes, 7 tensors)

weight f4 [64, 11]
00000000: 23d2 c4bd c16d a63d 49c8 27be dc63 a3bd
00000010: 7bf7 08bd 72b2 043e db42 8ebe 5112 cbbc
00000020: f7d8 23bc 4cd7 923e c1b1 373e c40d 043e
00000030: df39 97be 158e 8cbe 64c4 313e 0ea3 c9bb
00000040: 2c0e a43d 7db0 73be 4c01 d1bd d0af f5bd
00000050: 68d3 4a3e dff0 91be a83e 163d b68f 95be
00000060: a2b4 69be d488 5fbe cf0b 6d3e b281 e7bd
00000070: 54ed 4cbd f440 653e e0c2 6a3e 1651 523e
00000080: 8dcb 5fbe ea97 783e 25d6 a8bd 7edf 053e
00000090: 6411 833e 1b21 163e bd5b 023e c539 703e
000000a0: 7188 ae3c 8a9e b93d e7ab c73d 9546 763e
000000b0: 86eb 94be f228 153e 651d 81be e61b 9a3e
000000c0: c37d 203d 7dc6 2dbe 7173 15be 5b6a 413e
000000d0: 12fb 703e c399 733d 3bcf b9bd 7fa9 96be
000000e0: b42e c13d 5299 01be 3850 313e 54a3 943e
000000f0: f0f1 853e 34f4 6cbd 4f3a 8abe e8cb 873d
00000100: 9c2f 85be b6c2 97be 69c9 733e 6fd9 78be
00000110: 25ab 7e3d d636 18be 1885 20be 31a8 3ebe
00000120: eac4 df3d 545e 083e cfae 84be 7a5b 2d3e
00000130: 4abe ff3c bef2 2f3e e8bc 383e 6e6e 863e
00000140: dc43 b23d 7c71 853d 84e9 d13d 3883 c83d
00000150: 7c2a 92be b4dd 4dbe 4277 52be 3cdc d03d
00000160: 08c1 7abe 7657 94be 6e3c 71bd dbcc d63c
00000170: 00b2 f53d 074a 02be f9d3 983d 3a87 6e3e
00000180: f8dd 943d 6346 953e 8a19 493e 90d6 b8bc
00000190: 99dd 21be a8fb 0abe 3c7f 5fbe 8f4d 85be
000001a0: 81c1 18be 3c8c 5a3e abbd 47be d00d 433e
000001b0: 689a 0a3d a219 adbd 42a3 1d3e 0666 79be
000001c0: 30cc 803e 00ee 843c d64c 223e 2271 6ebe
000001d0: a1f0 083e c9e5 12bd 8379 87be 6030 eb3d
000001e0: 0369 84bb b0c2 eb3d 88d4 573d c8aa 8f3e
000001f0: 6c6e 863e 0483 f53d 6edf 863e 285d 793d
00000200: d874 55be ecda 213e af0a 91be 8ed0 62be
00000210: 2198 8a3e 8889 30be 9f6a 833e 00ad 0d3d
00000220: 4da4 91be dad9 38bd 2257 543e 5f4e c93d
00000230: 10c8 47be 34fd c13d e882 5fbe 36f8 82bd
00000240: 88e9 0ebd de91 82bd 6ee4 973e 00e3 ebba
00000250: 69ad 80be a41b 453e f8ff 03be 4095 45bd
00000260: 4c02 0abe 48a5 703e c3ab c03d c17d 1ebe
00000270: bb7b 133e 8a0f 273d 8f7e 673e 69b4 243d
00000280: be07 3f3e 266f 823e 73f2 733e 435a 5d3e
00000290: ae39 f63d fba2 783e 2b2c 28bd 205f 49be
000002a0: d6ad 8ebd 61cb 1e3e 08b6 f43a 1d76 bc3d
000002b0: 34ee bd3d 3724 9dbd 9be4 9bbd 2cd1 463e
000002c0: e815 0d3b 3f73 55be 0bed 993e 568b 403e
000002d0: aaad 68be 57ea bdbc a340 4bbe a0fd 883e
000002e0: ecc3 513e a716 11be 12fb 823e 4edc bcbd
000002f0: b472 8e3e 6226 3b3e bcd5 8b3e edc9 90be
00000300: 2e07 893e 74e7 093e f16f 8abe 4241 013e
00000310: f977 78be c17c 79be 2d99 493e 080e 03be
00000320: 6e2e 84be b81f 6cbe 05bc 763e a1d8 56be
00000330: b652 81be 880a 5b3d 11f0 4fbd 6594 933d
00000340: 2ded b73b 5235 78be 46f5 723e 598f 77be
00000350: ac55 96be 2afc e5bd ccc7 643e 87a5 cb3d
00000360: d9b3 fe3d e851 8d3d b05b 29be bad8 afbd
00000370: 4c45 83bd 4b82 6dbe deda a4bd 9cc8 5b3e
00000380: 11f3 92be 5560 22be ab61 2abe ab0d 613c
00000390: 26ab bfbc 1edc 883e deb5 263e 9d86 4ebe
000003a0: caa5 8dbd 88be c2bd 04a6 96be 1119 72be
000003b0: a80d 6bbe 4743 90be 8fe8 0d3b d969 fabd
000003c0: fd9d 593e 6221 69be 80fd 02be 7b41 11be
000003d0: 86bb 0b3e eacd 2cbe be2b 98be bb18 99be
000003e0: 980a 7b3d ae0b 4abe f4ae 91bd f009 873d
000003f0: 3062 e13c c872 1cbe 52de 6c3e 57b4 fb3d
-0.09610393 0.08126403 -0.16384996 -0.07978031 -0.03343914 0.12958696 -0.27785382 -0.024789007
-0.010000459 0.28679883 0.17938901 0.12895876 -0.2953634 -0.2745215 0.17360073 -0.006153471
0.080105156 -0.23797794 -0.102053255 -0.11996424 0.19807208 -0.28504083 0.036680847 -0.29211205
-0.22822812 -0.2182954 0.23149036 -0.11304034 -0.05003102 0.22388059 0.22925901 0.20538744
-0.21854992 0.242767 -0.0824397 0.13073537 0.25599205 0.14661066 0.12730308 0.23459537
0.021305295 0.09063442 0.09749585 0.24050362 -0.2908594 0.145664 -0.2521774 0.3009941
0.039182436 -0.16970249 -0.14594819 0.18888228 0.23533276 0.05947281 -0.09072729 -0.2942619
0.09432736 -0.12656143 0.17315757 0.2903086 0.26161146 -0.057850078 -0.2699761 0.06630689
-0.26012886 -0.2964074 0.238073 -0.24301694 0.062174935 -0.14864668 -0.15675771 -0.18618847
0.1092623 0.13317233 -0.25914618 0.16929427 0.031218667 0.17182443 0.18040812 0.26256126
0.087043494 0.06515786 0.10249618 0.09790653 -0.28548038 -0.20104104 -0.20553306 0.101982564
-0.24487698 -0.28972977 -0.05889552 0.02622073 0.119968414 -0.12723552 0.074623056 0.23293772
0.072689 0.29155263 0.19638649 -0.022563249 -0.15807189 -0.13572562 -0.2182588 -0.26035735
-0.14917566 0.21342558 -0.19505946 0.19048238 0.03383866 -0.08452155 0.15394309 -0.24355325
0.25155783 0.016226768 0.15849623 -0.23285344 0.13373043 -0.03586367 -0.26459894 0.11483836
-0.0040408387 0.11511743 0.05269292 0.28059983 0.2625612 0.1198788 0.26342338 0.060879856
-0.20845354 0.15806168 -0.28328463 -0.2214987 0.2706919 -0.17239964 0.25667283 0.034588814
-0.28445664 -0.045129634 0.20736364 0.09829401 -0.19509912 0.09472123 -0.2182728 -0.06394999
-0.03489068 -0.06375478 0.29666466 -0.0017996728 -0.251323 0.19248825 -0.12890613 -0.04823804
-0.13477439 0.2350055 0.09407761 -0.15477659 0.14402668 0.040786304 0.22606872 0.040211115
0.18655297 0.25475425 0.23822956 0.21616463 0.1202272 0.24280922 -0.041057747 -0.19665194
-0.0696675 0.1550727 0.0018669972 0.09202216 0.09273949 -0.07672923 -0.076119624 0.1941573
0.002152795 -0.20844744 0.30063662 0.18803152 -0.22722498 -0.023183031 -0.19848876 0.26756
0.20484895 -0.14168797 0.25582176 -0.09221707 0.27821887 0.1827636 0.27311504 -0.28279057
0.2676329 0.13467199 -0.2703853 0.1262255 -0.24264516 -0.24363996 0.19687338 -0.12798321
-0.25816673 -0.23058975 0.24095161 -0.20981075 -0.25258416 0.05347684 -0.050766055 0.072060384
0.0056129904 -0.2423909 0.23726377 -0.24175777 -0.29362237 -0.11229737 0.22341841 0.09943681
0.12436647 0.06900388 -0.16538882 -0.08586259 -0.06409702 -0.23194234 -0.08049558 0.21463245
-0.2870107 -0.1585706 -0.1663882 0.013736169 -0.02339704 0.26730436 0.16280314 -0.20168538
-0.069163874 -0.09508997 -0.29423535 -0.23642375 -0.22954428 -0.2817633 0.0021653508 -0.1222722
0.21251674 -0.22766641 -0.12792015 -0.14185135 0.13645753 -0.16875425 -0.29720873 -0.2990168
0.0612894 -0.19731018 -0.07113448 0.06593692 0.02751264 -0.1527816 0.23131683 0.122902565

bias f4 [64]
00000000: 34ad 44be ea80 bb38 3cf2 ea3d 3cb3 25be
00000010: bcf1 833e cdfc 31be b8ef 09bc 58f7 fb3d
00000020: 9849 e23b de02 353e 602a 3abe a8b6 73bd
00000030: 547b cf3d 80bf 92be 5588 86be dacf 9fbd
00000040: de27 393d e24c 113e 169d 2c3e 81e2 ceba
00000050: 96b9 923e a003 2f3e 947e 893e 5da4 d9bd
00000060: a122 95be 00e5 6d3e 507e 813e 90fd 143d
00000070: 98e2 73be e715 2abe 045e e83d 56ea f0bd
00000080: 184e 2e3e 5a6f f7bd 9e3a 9a3e 4c85 94be
00000090: 348d 923d e0ac a8bd dcc8 803e 2630 85be
000000a0: 101d a33d aafd 313c c77d a0bc 3462 903d
000000b0: 8c59 513e 5948 94be e499 923d 1ccf 51be
000000c0: e6f2 82be 002c 7a3d cac6 843e 32de 36be
000000d0: ec43 b93c 152d 46be 8211 01be 7c51 8f3d
000000e0: aca0 93be 8097 0ebe ab9b 07be 3a9f 0a3e
000000f0: f08a 4bbd 805b a0bc 23e6 5fbe d800 1c3e
-0.19206697 8.940867e-05 0.11471984 -0.16181654 0.25770366 -0.17381592 -0.00841897 0.123030365
0.0069057457 0.17676875 -0.18180227 -0.059500366 0.10130945 -0.28661728 -0.26275888 -0.078033164
0.045204036 0.14189485 0.16856799 -0.0015784056 0.28657216 0.17091227 0.26854384 -0.10627053
-0.29127982 0.23231888 0.2529168 0.03637463 -0.23816907 -0.16609918 0.11346057 -0.11763446
0.17021978 -0.120817855 0.30122846 -0.29007947 0.071558386 -0.08236098 0.25153244 -0.26013297
0.079645276 0.010863701 -0.019591225 0.07049981 0.20444316 -0.28961447 0.071582586 -0.20489162
-0.25575942 0.061077118 0.25932914 -0.17858198 0.022615395 -0.19353135 -0.12604335 0.06997964
-0.2883352 -0.1392498 -0.13242976 0.13537303 -0.049693048 -0.01957488 -0.21865134 0.15234697

weight f4 [32, 64]
00000000: 7e1d 97bd fa1b 80bc c1f7 e13d bf10 87bd
00000010: 88c2 683d 92e4 9d3d ab1b ca3d d09e b03d
00000020: 9cfe 01be 4c87 6c3d 9172 b4bd 2000 b8bd
00000030: 7515 d4bc e66e 8a3d 3dcc b5bd 7f2c 8bbd
00000040: b31d 4bbd 428c a2bd e621 f53d 69a5 f73c
00000050: 8183 14bb 3aa3 873d 9efd 9f3d b8a4 be3d
00000060: 66e5 853d 9e8f 56bd ccf5 9e3d fe06 9d3d
00000070: c476 d6bd 67a4 89bd d687 ae3d 2a17 f93b
00000080: 8c98 a93d 94ae c0bd 10f2 c3bd b27f ca3d
00000090: 43dd 4bbc 46ef 9bbc 6ebd e7bd 1afd cabd
000000a0: 338a 3f3c d0c1 2abc 586b 223d 1d1e 9fbd
000000b0: c01f fb3d 44ce 2a3d 8090 d53b bc71 b43d
000000c0: 3939 9c3b 6060 8fbd 8048 2dbc 8c73 2abd
000000d0: 511d 153d 6cde 0cbd 40d6 303c 6e66 9fbd
000000e0: eead cd3d d7ef 2fbd e442 14bd f005 573d
000000f0: 9a7a c83d 5cca febd 8cf7 683d 88c6 a4bc
00000100: 0ebc d7bd 0855 c13c a872 853d 4024 563b
00000110: 2843 ca3c fc3a bdbd 9e46 bd3d 8026 18bd
00000120: 00d0 ceb9 247d cb3d 62f6 d9bd 082b c3bc
00000130: 04b1 773d 0e00 fd3d 3004 babc c065 14bb
00000140: a843 c5bc d013 c13d 3a70 bebd 8036 ea3d
00000150: 666a 913d 9caf bd3d 3ea4 bc3d f2db 87bd
00000160: b8b9 7fbd b41a 57bd ae50 8e3d 74a1 f73d
00000170: c846 e7bd 5813 fdbd 20d6 3d3c 3087 4bbc
00000180: ac7c acbd 9095 48bd 8414 e0bd 4021 42bd
00000190: 8cb2 a83d 4cab 3fbd 5e08 ecbd 80ae 3f3b
000001a0: dcbf 73bd 6cb1 2a3d aaab c8bd 90df dd3d
000001b0: 4e87 ed3d 1c52 a3bd 9474 a33d ba98 cd3d
000001c0: 9820 43bd c0b6 23bb f24d d0bd c0fb 93bb
000001d0: b83b d7bc 8a8c f23d 56f3 863d ac8f fabd
000001e0: cc42 e73d d0d0 d73d 2eff c1bd e2a8 8d3d
000001f0: c492 6fbd 98ff b6bc 7cbb 0f3d 48d2 323d
00000200: 7d09 d0bd a8c3 dfbd fb65 0dbd eb57 1bbd
00000210: b63a dd3d b033 9ebd b5c7 963d cc27 7bbd
00000220: c249 b3bd 00ab 023b f035 4fbd 24db 2d3d
00000230: 88c8 9dbd e03a dd3d 832f 873d 7844 ec3d
00000240: bd43 e1bd b840 eebc 2dd4 0fbd e703 ff3d
00000250: c865 d33b f8d6 0f3d 8e3e f13d 6ee5 52bd
00000260: 9407 d53d b684 abbc 8ae9 88bd d0e3 123c
00000270: ea6c 7b3d f0e2 90bc 3222 0bbd 4105 07bd
00000280: 1a7f ad3d 4db0 66bd 6fe0 6e3d 5711 7bba
00000290: 7517 fabd 7e48 cb3d 2158 a83d 4259 95bd
000002a0: 5ae9 bd3d 8119 e33c 324f 763d 4129 d33d
000002b0: 007d 47ba 6cc9 f83d 60bf c93d 0061 f7bb
000002c0: 70ba 683d 8024 94ba 3daa f33c 9f1a c8bd
000002d0: 47be b83c a7c7 27bd 3840 463d c04d e03b
000002e0: 3162 bcbd a1fc ccbd d859 d63d 5b10 ea3a
000002f0: f6e7 f33d cac6 bfbd 12d2 9b3d a838 bebd
00000300: d7f0 a83d 792e a63d 3bab 8f3d d1ab d33b
00000310: aedc c83c e4e7 45bd a6e2 ddbd 5816 f73d
00000320: c05e 5d3d 6498 3f3d e68a d73d 7024 98bc
00000330: 0376 193c 404c 4dbb 0c3e 07bc 1e19 eabd
00000340: 9902 b1bd 64be 1c3d 7fb0 3ebd 67ff ebbd
00000350: 8330 09bc 589a f33b 1447 cdbd d432 323b
00000360: 0e47 cc3d ceef d03b 88f7 e3bd d08b dd3d
00000370: 5457 3cbd 877f bebb 8494 243d 50ae aebd
00000380: 68b6 3cbd 8076 75bd 30ea 813c 6766 663d
00000390: b8c6 a33d 840b 9d3d 4dfb c93c b01c 543c
000003a0: fbde 883b 585d 093d da44 62bd ddb0 8dbd
000003b0: 30e0 be3d 00c5 6c3d 1e8a bdbd 0e25 d23c
000003c0: 8b16 1c3c fe2b 9fbd a078 f63b cb18 543d
000003d0: d24c e3bd 1686 6d3d 8097 773b d2cd e93d
000003e0: 1335 87bc 114d bebd 2f52 d33a 9a18 e3bd
000003f0: f2b3 f43a 6e13 b4bd 00b0 e4b8 307a bc3d
-0.07378672 -0.01563834 0.110335834 -0.06594991 0.056826144 0.07709612 0.098685585 0.08624041
-0.12694782 0.057746217 -0.08810914 -0.08984399 -0.025889138 0.067594334 -0.08876846 -0.06795596
-0.04958887 -0.07936908 0.11969356 0.03023024 -0.002266139 0.0662293 0.078120455 0.09308761
0.06537895 -0.052383058 0.07761726 0.07667349 -0.104718715 -0.067208104 0.085220024 0.0076016383
0.08281049 -0.09408298 -0.09567654 0.09887637 -0.01244289 -0.019034993 -0.11315428 -0.099115565
0.011690664 -0.010422185 0.039653152 -0.077694155 0.12261915 0.041700616 0.00651747 0.088107556
0.0047675637 -0.07000804 -0.010576367 -0.0416141 0.03640491 -0.034391806 0.010793269 -0.07783209
0.1004294 -0.04295334 -0.036196604 0.052495897 0.097890094 -0.12440941 0.056876704 -0.020114198
-0.105339155 0.023600116 0.065160096 0.0032675415 0.024690226 -0.09239766 0.09241985 -0.03714609
-0.00039446354 0.09935978 -0.10642697 -0.02382423 0.06047155 0.12353526 -0.022707075 -0.0022643656
-0.024080113 0.09427607 -0.09298749 0.11436176 0.07100372 0.092620105 0.09211014 -0.06633748
-0.062432975 -0.0525157 0.06948982 0.120913416 -0.11292797 -0.12357205 0.011586696 -0.012422368
-0.08422217 -0.04897076 -0.10941413 -0.04739499 0.0823718 -0.04679422 -0.115250334 0.0029248297
-0.059509143 0.04167311 -0.09798367 0.10833657 0.11598073 -0.079746455 0.0798122 0.10038896
-0.047638506 -0.0024980754 -0.10171117 -0.004516095 -0.026273593 0.11843212 0.065893814 -0.122344345
0.11292037 0.10537875 -0.094725 0.069169775 -0.058489576 -0.022338673 0.03509091 0.04365757
-0.1015806 -0.1092599 -0.034521084 -0.037925642 0.10802214 -0.07724702 0.0736231 -0.06131725
-0.087543026 0.001993835 -0.05058855 0.042445317 -0.07704264 0.10802245 0.06600859 0.11536497
-0.10999248 -0.029083595 -0.035114456 0.12451916 0.0064513423 0.03511712 0.117795095 -0.051488332
0.10401836 -0.020937305 -0.06685169 0.008965448 0.061383165 -0.017686337 -0.033968158 -0.032963995
0.08471508 -0.056320477 0.058319505 -0.0009577474 -0.12211505 0.09925936 0.08219934 -0.07292415
0.09273024 0.027722122 0.06013412 0.10310603 -0.0007609874 0.12147793 0.09850955 -0.007549405
0.056818426 -0.0011302382 0.029744262 -0.097707026 0.022551669 -0.040961888 0.048401088 0.006845206
-0.09198416 -0.10009123 0.10466355 0.0017857658 0.119094774 -0.09364088 0.07608427 -0.0928815
0.082490616 0.08114333 0.070150815 0.006459691 0.02451929 -0.04831685 -0.108342454 0.120648086
0.05404544 0.04677619 0.1052454 -0.018572062 0.009366515 -0.0031325966 -0.008254539 -0.11430572
-0.086430736 0.03826751 -0.04655504 -0.115233235 -0.0083733825 0.0074341707 -0.10023323 0.002719094
0.0997449 0.006376243 -0.11131197 0.10817683 -0.04598172 -0.0058135423 0.040180698 -0.08529341
-0.046072394 -0.059927464 0.01585874 0.056250002 0.07996887 0.07668212 0.024655962 0.012946293
0.004176972 0.033536285 -0.055241443 -0.069184996 0.09320104 0.05780506 -0.092548594 0.025652435
0.009526859 -0.07772063 0.007521704 0.051781457 -0.11098637 0.057989202 0.003777951 0.1141621
-0.0165048 -0.09292043 0.0016122515 -0.11088677 0.001866935 -0.087927684 -0.0001090467 0.09202993

bias f4 [32]
00000000: 8531 eb3d f89e 74bd 6bf0 c9bd 21d4 3c3d
00000010: 320b 92bb 516d 213d 91ed 28bb abc3 f03d
00000020: 4478 b1bd c129 aebd 7c57 433d 9f36 15bc
00000030: 307d 35bd b083 433c e0d4 d7bc 9035 7fbd
00000040: bb7c 24bd c077 6c3b bd11 05bd a2bc eabd
00000050: 3e8f 493d be3f 8bbd afb7 073d 3605 b6bd
00000060: c0f9 473c ec64 b0bd f5f5 5c3d 1ff2 a2bd
00000070: 80a2 e13d c849 b1bd 11c0 913d b348 d63a
0.114840545 -0.059721917 -0.09860309 0.04610074 -0.004456901 0.039410893 -0.0025776366 0.11756071
-0.08665517 -0.08504058 0.047690853 -0.009107261 -0.04430884 0.011933252 -0.026346624 -0.06230694
-0.040158015 0.0036082119 -0.03248762 -0.1146176 0.049208872 -0.06799267 0.03313416 -0.08887713
0.012205541 -0.08612999 0.0539455 -0.07956337 0.110173225 -0.08656651 0.07116712 0.001634857

weight f4 [16, 32]
00000000: 1164 13be e485 283d fea5 08be f439 f6bd
00000010: b3f0 1cbe 0392 ebbd f048 97bc 78a4 ae3d
00000020: ac98 8abd 38f4 dfbd 400f 4fbb c4f8 83ba
00000030: 43a8 673d de21 9e3d c167 113e a3cd a8bc
00000040: 1322 eabd b92e 1abe 4319 b7bd 6264 ce3d
00000050: 7176 abbd 9413 4bbd b6fe 7bbd 4dba 193e
00000060: 491e 093e 806b 32bc ca3e f53c 3535 0f3e
00000070: f020 333e 7c5b 5bbd 8dfb 353e 9fc3 0e3e
00000080: a91b b7bd d468 0ebd 84b3 e4bc b46b 4a3d
00000090: a128 8c3d 2de5 ea3d 079e 273d f48b 8d3d
000000a0: bb8f a13d 1376 153d aad1 d33d ac7d 333e
000000b0: b03a 9dbc 9402 09be f8a7 e73c 18d2 9a3d
000000c0: 796e 8dbc 2f56 033e 7b0f ccbd f2ec 96bd
000000d0: b6bc a83d aad8 ee3d efbc e7bd a909 9bbd
000000e0: 5631 e73d 61e3 b1bd b862 203e 5577 083e
000000f0: 6159 8bbd 0028 0139 ac72 25be 1ee9 7d3d
00000100: 3212 433d c389 023e a541 1ebe 1794 15bd
00000110: a247 33be a617 2c3e 1e6b 543e 40df 3b3e
00000120: bd3c 7fbd b642 223e 908d 243c ae49 8dbd
00000130: 7434 253d c0f5 f5bb d280 1abe 5358 23bd
00000140: 090b 69bd 544d 913d c3ef bbbd 47df 1d3e
00000150: da21 1abe d0b5 64bd edd0 a83c 63de 233e
00000160: d088 6a3d 7805 a0bc 9a56 98bd 7a89 f53b
00000170: dbbf 18be e939 173e a74f 1b3e 2b3a 22be
00000180: 3837 0bbd 68a4 01bd 10a8 cf3c e0d9 53bc
00000190: a7cb 13be 147a 923d 803b 183b 9ae0 f3bd
000001a0: e22b d23d e2f3 b73d 453e 133e 1d41 1f3e
000001b0: bc14 85bd b500 9cbd d662 e0bd 3824 b93c
000001c0: dcae 9bbd d827 b13c 7072 633d de25 fabd
000001d0: a86b 98bc 262d 04be 13c4 253e 4e26 f4bd
000001e0: 7016 c2bc 918e 293e 74e3 583d bde6 8fbd
000001f0: 1565 23be 52f9 c33d b61e b6bd 3391 20be
00000200: aad5 aabd 20e5 ce3c a596 323e 81ce 733d
00000210: d41a 08be 62ac 12bd d09d 3ebd 22a7 ffbd
00000220: 4023 133e 4752 d2bd 601f e53c d84d a7bd
00000230: f26f be3d 503c 4cbd 15a7 153e 2ed2 dd3d
00000240: 00cd a33a 0432 09be 073d b9bd 0d4d 09be
00000250: 3cb6 b23c 0050 b839 3080 043e f68d c13d
00000260: 3578 163e 51d6 1a3e 491e 86bd d522 05be
00000270: 6278 8f3d f0d7 ec3c 257b 4ebb 68d5 15bd
00000280: 0083 e7bb 0458 303d 0165 08be 3064 9e3c
00000290: f949 1abe 46ac 8ebd 59f5 06be 5b5e 34be
000002a0: 163b f73d 87ef 263e ecbd 1dbe 3504 05be
000002b0: 6f6d 20be d02e 1a3d 4f58 233e f305 193e
000002c0: 2064 253c d7a9 053e c52d f5bd 76e7 b13d
000002d0: 1eb9 33be acf5 813d 2084 09bc 27de dbbd
000002e0: d19b 0b3e 4bae 303e c08b 1dbe 26f3 9e3d
000002f0: 3ab0 fa3d 423b 06be 6ab9 e4bd 2006 7f3c
00000300: b25b 1b3d 409c 52bb 80a8 f53c cc2e 21bc
00000310: 34fb fabd 5afa dc3d ad0c 72bd 4348 aa3d
00000320: 3277 8e3d 6555 0c3e 4532 cabd 5e12 a13d
00000330: 19db 343e dd0b 243e b859 52bd 8209 cc3d
00000340: 6ecd 9e3d e9fe 19be 89e6 05bd 669b e03d
00000350: 8300 d1bd 13dc 003e da6a 203e ce15 f5bd
00000360: 2910 0e3e 4070 5ebb ef88 d1bd 6f57 07be
00000370: 7937 a5bd a064 09be 7232 8dbd 724a 03be
00000380: 4907 173e 536d 0a3e cced 813d 0074 a1bb
00000390: b6be 97bd 6d17 e3bd e4aa 06be c1bd bebd
000003a0: c0dc 753c 4691 bf3d c686 12be 2a07 c03d
000003b0: 30cb 383d 5230 9bbd f6e0 bbbd 5f61 1e3e
000003c0: f69d 9b3d 9d6a 96bd 6b19 cdbd b044 ad3c
000003d0: b527 0b3e 8600 d73d da84 0dbe 62da e23d
000003e0: da99 f73d 4008 13bb 5052 083c c08d 733b
000003f0: 666a cc3d bf0e 323e c08c efbd 7e78 ab3d
-0.14393641 0.041143313 -0.13344571 -0.120227724 -0.15326194 -0.11502459 -0.018467396 0.08527464
-0.06767401 -0.10935253 -0.0031594783 -0.0010068645 0.05655695 0.077213034 0.14199735 -0.020605868
-0.114322804 -0.15056886 -0.08940365 0.1007774 -0.083722 -0.049579218 -0.06152221 0.15012474
0.13390459 -0.010889888 0.029937167 0.1398514 0.17493033 -0.053554043 0.1777174 0.13941811
-0.08940823 -0.03476794 -0.027917631 0.04941912 0.06843687 0.11469493 0.04092219 0.069114596
0.078887425 0.036489557 0.103427246 0.17528409 -0.019193023 -0.1337989 0.028278336 0.075596035
-0.017264592 0.12825845 -0.0996389 -0.073694125 0.08239119 0.11662419 -0.11315333 -0.07570202
0.11288707 -0.08685947 0.15662658 0.13326772 -0.06804157 0.000123173 -0.16157025 0.061989896
0.047624774 0.12747864 -0.15454729 -0.036518183 -0.17507794 0.16805896 0.20743987 0.18346882
-0.062313784 0.1584576 0.010043517 -0.06898819 0.040333226 -0.0075061023 -0.15088204 -0.039879154
-0.05689529 0.07094827 -0.0917659 0.15417205 -0.15051976 -0.055837452 0.020607436 0.16002803
0.05725938 -0.019533858 -0.07438393 0.007493195 -0.14916937 0.14768185 0.15167104 -0.15842502
-0.033988208 -0.03165093 0.025348693 -0.012930363 -0.14433156 0.07152191 0.0023228824 -0.11908074
0.10262276 0.08982064 0.14379223 0.15552182 -0.064980954 -0.07617322 -0.109563515 0.022600278
-0.07601711 0.021625444 0.055529058 -0.12214254 -0.018606022 -0.12907848 0.16188078 -0.119213685
-0.02369234 0.16558291 0.05295129 -0.07026432 -0.15956528 0.095690385 -0.088925764 -0.15680389
-0.083415344 0.02525574 0.17440279 0.05952311 -0.13291484 -0.03580893 -0.04653722 -0.1248305
0.14368916 -0.102695994 0.027969062 -0.081691444 0.092986956 -0.049862206 0.14614518 0.10831104
0.0012497008 -0.13397986 -0.09044843 -0.13408299 0.021815412 0.0003515482 0.12939525 0.09450905
0.14694293 0.15120818 -0.06548745 -0.13001569 0.07005383 0.02891156 -0.0031506505 -0.036580473
-0.007065177 0.04305269 -0.1331978 0.019334882 -0.15067281 -0.06966452 -0.1317953 -0.17614119
0.120718166 0.1630231 -0.1540448 -0.12989886 -0.15666746 0.0376423 0.15951656 0.14943676
0.010094672 0.1305307 -0.119716205 0.08686726 -0.17551085 0.06345686 -0.008393317 -0.107357316
0.13633658 0.17253987 -0.15385342 0.07761221 0.12240644 -0.13108543 -0.111681774 0.015565425
0.037929244 -0.003213659 0.029987574 -0.009837817 -0.122549444 0.10789938 -0.05909412 0.08314564
0.069563285 0.1370445 -0.098728694 0.078648314 0.17661704 0.1602015 -0.051355094 0.09962751
0.07754026 -0.15038647 -0.03269056 0.1096714 -0.10205176 0.12583952 0.1566576 -0.119670495
0.13873352 -0.0033941418 -0.10231196 -0.13216947 -0.08067221 -0.13417292 -0.06894387 -0.12821367
0.14748873 0.13518266 0.06344184 -0.0049271584 -0.07409422 -0.110884525 -0.13151127 -0.093135364
0.015006244 0.093538806 -0.14309224 0.093763664 0.04511565 -0.07577576 -0.09173767 0.15466832
0.07598488 -0.073445536 -0.10014614 0.021150917 0.13589366 0.10498147 -0.1382021 0.110768095
0.12089892 -0.0022435337 0.008320406 0.0037163347 0.099812314 0.17388438 -0.11696768 0.083725914

bias f4 [16]
00000000: 584b 0dbe b676 af3d f02a eebd c004 cbbc
00000010: 758b 2d3d 8a58 6dbd 5938 e4bd 4888 18be
00000020: dde5 dc3d b7b6 14be baf8 80bd 2529 1dbd
00000030: 3e6f f3bd e21a acbd d570 e6bd 0b48 273e
-0.13798273 0.08567564 -0.116292834 -0.024782538 0.042369325 -0.057945766 -0.1114356 -0.14895737
0.107860304 -0.14522825 -0.06297441 -0.038369317 -0.11886452 -0.08403565 -0.1125199 0.16336076

weight f4 [1, 16]
00000000: 55fc 213e 8340 043e 260c 433e 1e83 743e
00000010: 3bdb 19be 602e 4d3e fd73 0abe 4065 b13c
00000020: e4b1 1f3e 84cb d63d 80a5 e1bd 0c02 02be
00000030: f040 9abd 8396 aebd 08c6 65be 5480 f1bd
0.15818913 0.12915234 0.19047603 0.23878142 -0.15025036 0.20037222 -0.13520809 0.021654725
0.15595204 0.10488036 -0.11017895 -0.12696093 -0.07531917 -0.085248016 -0.22438824 -0.11792055
